models/basic_lstm.pt (torch, 83814 bytes, 5 tensors)

lstm.weight_ih_l0 f4 [256, 13]
00000000: c22a dcbd 134e 083d a394 82bd 38ff 763d
00000010: 1872 593c 8bee bdbd 4303 55bc 0ef4 33bd
00000020: 1a18 0fbe 9d9f c3bb 8d2a d2bd 4baa c5bd
00000030: 3d76 72bc 47d3 39bd 84c9 0abe 66e2 05be
00000040: 4f5d 1dbe 1ec0 e1bd 5e81 163d 1a9c 6a3d
00000050: 9eea 16bd f016 a83d 0aa1 debd 685f 373c
00000060: d490 74bd d711 453d 0708 e4bd 701a 2bbe
00000070: 24ee 523c f60d 10be 0348 36be 8f1c 96bd
00000080: 50f7 f5bd cb06 5dbe b054 30bd 0fab 9fbc
00000090: 813c 72be 2fee 41be f6c7 f5bd 804d b3bd
000000a0: 074d acbd 9952 f8bd 5c7d 23bd 7c32 3abe
000000b0: d8af ba3c c723 733c 8099 74bc 49c9 4bbe
000000c0: 1fd6 15be affc aabc fed2 c8bd d7f2 2c3d
000000d0: a1bd 16be d141 bebd c317 42bd 2896 ffbc
000000e0: 35c8 32be 197a 3cbe cc65 2cbd 0cad 903d
000000f0: b412 89bd 2166 a3bd 7da4 8cbd 7ee1 01bd
00000100: 22e5 373d 5ea6 7abb 15a8 78bd 6e7b d8bb
00000110: bfe0 41be 52d8 30be 0cb3 08be c6d9 943c
00000120: 37ed 343d bd84 18be 3d43 d3bd 957d bdbd
00000130: 40d3 4fbe fd0e 80bd 8d97 853b 255f f0bb
00000140: 2c3c 1fbe 99ec 4fbc e6c9 9e3c dc94 b7bc
00000150: efea 15be 5054 e0bd daab 07be 5089 a2bd
00000160: 420d 043d f3e0 693c 2950 f2bd dc23 bbbd
00000170: 7fad 00be 4ff1 e8bc 8f4d 7cbd f8ec 96bd
00000180: a82c ce3b c346 58be f754 d83b f6d8 b9bb
00000190: f0bc 2dbe 4fa0 5fbe 55dc 55be 7d9d 47bd
000001a0: f8dd 1fbd 5f83 48be 17b3 a0bb ce18 683d
000001b0: 8dfa 84be adc9 12be d976 51bd 63f4 eabd
000001c0: 2d93 893d f99a 9bbc 1bb0 e1bb 8385 19be
000001d0: 8d1f e9bd 39eb 12be 4bf2 e0bd 87f0 33be
000001e0: ea31 dabd f128 32be 7dcb 613d 2cc3 0dbc
000001f0: 8eb9 f33a 1424 ebbd 0b35 24ba afe1 5fbd
00000200: 353c bfbd ef0c 57be f238 2dbc fb02 14be
00000210: 04e0 8cbd 2438 6bbd 62aa fb3d 9187 f8bc
00000220: 2e58 f139 7f68 813d abb4 d6bd 510b f1bd
00000230: 7a8c ab3c 0781 b6bd 99a4 4fbd c03a 66be
00000240: 1499 82be 7ac1 03be a026 ddbd f796 bd3d
00000250: bda5 c53c 55e6 1dbe 7e20 fbbd 7ab2 7e3d
00000260: 798c f7bc 19f1 40be 7279 933b fa3f 053c
00000270: 7fc1 2e3c a213 1fbe a04b 70bd 9c93 aa3c
00000280: d6ff e2bd 81c1 79bd 9d6e 173d 58a9 b5bb
00000290: 3a87 1c3d 6e96 bebd 4759 3b3d 0955 043c
000002a0: f5a5 52bd 57c6 5fbe bfa0 51bd 49ec 1cbe
000002b0: 9dfc 2abe 264a 7abd d04a 8abd 8022 5bbe
000002c0: 80f8 19be f311 b23c f091 d53c 5707 19be
000002d0: c151 46be de7b 81bc d611 1bbc 391a 8bbd
000002e0: ebad 29be 8924 32bd 9f58 3ebe 299a 14be
000002f0: f396 83bd 0331 12be 41ea c6bc 359c 183d
00000300: 01d2 2cbd 8a57 923d 3982 7abd 40e5 f4bd
00000310: 9564 0fbe ee1c abbd 215c ec3c a094 9d3b
00000320: 147b 26bd d087 3bbd 0483 8ebc 96f7 233d
00000330: ce4d b3bd 04ec 97bc 5d86 0fbe 5eb7 e53c
00000340: 4bfa cdbd 4ca7 44bd 790b 1bbd c553 2a3d
00000350: baa6 20bc 3891 873d 2145 013d 1b28 00be
00000360: 67bb acbd a8de ddbd d313 a3bd c911 27be
00000370: e2ca 21be 1325 4ebd 2370 97bd 1cb4 d6bd
00000380: 6ca6 2fbe 1353 fcbd 6142 20be 6d52 dfbd
00000390: 6df6 82bd fed2 ddbd 3537 a13a 1594 f2bd
000003a0: ce38 363d 5542 893c f7e1 493c 388a eb3c
000003b0: 3a89 a9bd 886f 31bd e26b 94bd abc6 1abe
000003c0: bed1 f3bd bfce 95bb b8d6 873d 2c7b 8a3d
000003d0: f1e9 a0bd d01a 29be cb4c cfbc eb5a 9ebd
000003e0: 60e0 07be a279 15bd efb1 2ebe c187 f4bb
000003f0: 6b67 78bb ede1 47bd 1d31 edbc 69e7 a93c
-0.10750343 0.033277582 -0.063760065 0.06030199 0.013271831 -0.09274014 -0.013001266 -0.04393392
-0.13974038 -0.005969955 -0.10262022 -0.096516214 -0.014798698 -0.045367505 -0.13553435 -0.13074645
-0.15367626 -0.110229716 0.036744468 0.057277776 -0.036844842 0.082075 -0.108705595 0.01119218
-0.05970843 0.048112717 -0.111343436 -0.16709304 0.01287416 -0.14067826 -0.17800908 -0.07329666
-0.12010062 -0.21584623 -0.043049514 -0.019490747 -0.23655893 -0.18938516 -0.1200103 -0.08755016
-0.08413129 -0.12125129 -0.039914474 -0.18183321 0.022788927 0.014840073 -0.014929175 -0.19901003
-0.14632462 -0.020872442 -0.098058686 0.042223778 -0.14720775 -0.09289897 -0.047385942 -0.03119953
-0.17459185 -0.18405952 -0.04208927 0.07064256 -0.066930205 -0.07978464 -0.06867311 -0.031709187
0.044896252 -0.0038246135 -0.06070717 -0.006606511 -0.1893339 -0.1727002 -0.13349551 0.018170249
0.04417154 -0.14894386 -0.10315559 -0.092524685 -0.20295429 -0.06252859 0.004076904 -0.007335561
-0.15550297 -0.012690687 0.019383382 -0.022409849 -0.14640401 -0.10953581 -0.1324915 -0.079363465
0.032239206 0.0142748235 -0.118316956 -0.09137699 -0.12566184 -0.028435377 -0.061597403 -0.07369417
0.0062919445 -0.21120743 0.0066019255 -0.0056716157 -0.16966605 -0.21838497 -0.20884831 -0.048734177
-0.039030045 -0.19581364 -0.0049041617 0.05666428 -0.25972405 -0.14334746 -0.051138733 -0.11472394
0.06717525 -0.018994795 -0.0068874485 -0.14992337 -0.11382971 -0.14347543 -0.10983714 -0.17572223
-0.106540516 -0.1739843 0.055125702 -0.00865249 0.0018594728 -0.11481491 -0.00062640075 -0.054658588
-0.093376555 -0.21001028 -0.010572659 -0.14454262 -0.06878665 -0.057426587 0.12288357 -0.03033808
0.000460328 0.06318759 -0.104836784 -0.117697366 0.020941008 -0.08911329 -0.050694082 -0.22483349
-0.25507414 -0.12866774 -0.10798383 0.0925731 0.024126882 -0.15419896 -0.12262057 0.062181927
-0.03021835 -0.18841971 0.0045005614 0.008132929 0.01066625 -0.15534833 -0.05866587 0.020822339
-0.11083953 -0.060975555 0.036970723 -0.005543869 0.0382149 -0.09306036 0.04573944 0.008076915
-0.0514278 -0.21853004 -0.05117869 -0.1532451 -0.16697927 -0.06110587 -0.067525506 -0.2139988
-0.15036201 0.021737074 0.026070565 -0.14944206 -0.19367124 -0.015806135 -0.009464702 -0.06792111
-0.1657025 -0.043491874 -0.18588494 -0.14511932 -0.06425276 -0.14276509 -0.024281623 0.037258346
-0.042192463 0.07145603 -0.061159346 -0.119577885 -0.14003213 -0.08355127 0.028852524 0.0048089772
-0.04064472 -0.045783818 -0.017396457 0.04003104 -0.087550744 -0.018545158 -0.140161 0.028041538
-0.10057505 -0.04801111 -0.037852738 0.041583795 -0.009805376 0.06619495 0.031560067 -0.12515299
-0.08434182 -0.10833484 -0.079627655 -0.16315378 -0.1580005 -0.050328325 -0.07394435 -0.10483572
-0.17153329 -0.12320533 -0.15650322 -0.10904393 -0.06394658 -0.10831259 0.0012299778 -0.11844651
0.044487767 0.016755262 0.012321941 0.028752431 -0.08278127 -0.043319255 -0.072471395 -0.15114848
-0.119052395 -0.004571765 0.06632751 0.067617744 -0.07857121 -0.16514134 -0.025305172 -0.07732185
-0.13269186 -0.03649295 -0.17060064 -0.007462472 -0.0037903439 -0.048799444 -0.028954083 0.020740228

lstm.weight_hh_l0 f4 [256, 64]
00000000: 929c 06be bffc d83d 7aaa 443e 598a 01be
00000010: 7c27 943c f705 083e 9056 5d3d 47da f0bd
00000020: ded1 e3bb d045 c33d b6ee 913d 9443 773d
00000030: e3d8 dfbd 66a1 22bd 53cd 673c 15c7 9c3c
00000040: 6450 43bd 47bc 623e 77c8 443d 2410 d43d
00000050: 2e10 56bb f29c 8dbb d1bf 983d bdcf 823c
00000060: 2d43 0cbe 9ae1 95bc 478a b5bd be74 183d
00000070: 1c3a c13d 5d74 fa3d 746b 883d 5a64 963d
00000080: f17a bcbc dba1 bb3d db10 e5bb 52a1 32bd
00000090: 519e df3d 7e24 f1bd 5780 1b3e 312c 733c
000000a0: 5839 11be 2b8c cb3b 7038 d23c dd39 803d
000000b0: f494 ea3c 9c4c d63d ddb3 98bd e48e 793c
000000c0: fba6 2d3d 195f f63d 82d6 2dbe ad8e 77bd
000000d0: f1ce abbc 310d abbd a0eb a33d 4385 8bbd
000000e0: 384b de3d ba42 b03d cd40 f5bd bea6 ba3d
000000f0: 1bed e03b 6684 27be 11a7 1abe 9f7c 94bd
00000100: b993 adbd 67f0 66bc d38c 173e ddb0 e2bd
00000110: efb4 803d 71b2 78bd af21 793b fd04 b33c
00000120: bad2 29be 04f4 063e b265 7dbd 2bdb 933d
00000130: 90e4 00be 01d2 5ebd a41a b03d 9ada cdbc
00000140: fe6a 39bc b50a bf3d 8059 abb9 5a8f 85bd
00000150: fe53 fb3d 44c0 a2bc 5fe0 b1ba 6ab0 2fbe
00000160: 7399 053d 40bd a6bd ae5a 05be 7a6a 8ebc
00000170: 76f0 813c 8017 35bc 5051 3a3c 4f81 90bd
00000180: 3f56 1ebc 2416 1d3e 9ec6 33be a44c 173e
00000190: e2fc 123e 4eed febd f8bc 123d 40bf f83c
000001a0: 8a42 31bd 2c0a eb3d 7a97 3bbc 634a 46bd
000001b0: 1851 31bd b1e4 553d f9cc 19bd afcf ed3d
000001c0: c2d0 1cbe 0a93 e0bb b2f2 0dbe d3aa af3d
000001d0: dd78 8f3d 36ef 493d 67e7 fd3d f6ba ea3c
000001e0: c04c 403c 0ed1 5a3d 13ec 8c3d ca65 e73d
000001f0: 59d9 d4bd 9493 97bd c3bb 2cbd e0de c9bd
00000200: 2195 25be 523d 113c 73f4 ebbd 70ac c23d
00000210: 6931 923d 33c5 75bc 496d 29be 143a 523d
00000220: 8229 803a e0d5 013e 3bb8 15be b9be a9bd
00000230: 5fa3 423d e17d b5bb 8a4c 12be 3b6d e3bd
00000240: 197f 8f3d 0a96 b9bd 086b b03c b581 893d
00000250: b4cd 62bd 2d82 d13d 4a79 a43d 9f95 073e
00000260: 2b2e f6bd cd17 903c 9d10 78bc 07c3 25bd
00000270: 38fb f93d e11a 8c3d c05a 053e c7b8 a13a
00000280: 0ce3 80bd 9052 14be 1279 1d3d d30c e6bc
00000290: 5297 1ebe 7cde 15bd 956e 0cba 87c5 7b3d
000002a0: 67a8 c0bd 2a0e 6abd 288b 343d 4808 30be
000002b0: 140e b4bd d5b7 913d 12db 1abe 8b7f 2bbd
000002c0: a94c 9abb d34b c7ba e195 81bd 4e87 2fbe
000002d0: 0a93 85bd 91ed 92bd 3456 1fbd 2e1b ea3d
000002e0: 1f8c d3bb ae13 963d 55cb 9cbc 9912 17ba
000002f0: 0b7b 89bc 23b6 0bbe 02c6 243d affd a1bd
00000300: 4f7f 92bd e8d6 573e 18f2 34bd d00a 4abd
00000310: 4408 cc3d c1d8 8cbd 47f0 6cbd 02ac 033e
00000320: 315b a23d 6253 c93d 7fbe 10be c82c a23d
00000330: a87c 32bd 0462 18be 751c e0bd b1ca 57bd
00000340: 8690 2d3e 1c44 643d 3f83 70bc d321 98bd
00000350: fb34 513d c671 b13d d917 c1bc 83fe abbc
00000360: 4604 a7bd 0a85 5e3e 0179 4cbe 31aa 8abc
00000370: 2dd0 833d 41da a33d caaa 9d3d 1856 073e
00000380: 155a dcbd 3e9d 88bd 3f3d b5bd 2b53 b33d
00000390: 9fbb 2abe 88d6 c2bd 2f36 4f3d a946 383e
000003a0: 8a5e 21be 35c2 4fbb 6382 36bd e15f 6d3d
000003b0: db51 ebbd bc8e 313d be7b cabd 2490 50bc
000003c0: 707b bfbc 09c5 443d eed1 62bd b6bd 803d
000003d0: 5694 2dbd da79 3fbd 6647 b83d a582 0a3d
000003e0: caf9 9c3c fb83 1b3e d7f6 40bc bce8 0fbd
000003f0: 1650 f1bd 2cc1 423d c42b 5d3b 1799 423c
-0.13145664 0.105950825 0.19205657 -0.12650432 0.018085234 0.13283525 0.05403763 -0.11760383
-0.0069525084 0.095348 0.071256086 0.060367182 -0.1093004 -0.039704703 0.014148074 0.019137898
-0.04768409 0.22142135 0.04804274 0.10354641 -0.0032663452 -0.004321688 0.07458461 0.015968198
-0.136975 -0.018296052 -0.08864265 0.03722071 0.094349116 0.12229226 0.0666112 0.07343359
-0.023007842 0.09161731 -0.0069905347 -0.04361088 0.10918868 -0.117745385 0.15185677 0.014842079
-0.14182031 0.0062117777 0.025661677 0.062610365 0.02863548 0.10463831 -0.07456181 0.015231822
0.042395573 0.12029857 -0.1697636 -0.0604388 -0.0209727 -0.083521254 0.08003926 -0.06812527
0.108541906 0.08606477 -0.119752504 0.09113835 0.0068642027 -0.163591 -0.15102793 -0.07250332
-0.084754415 -0.014095402 0.14799814 -0.1106889 0.0628451 -0.06071705 0.0038014462 0.021852965
-0.16584292 0.13179022 -0.061864562 0.07219537 -0.1258719 -0.054399494 0.08598831 -0.025128651
-0.011317013 0.09328214 -0.00032682344 -0.06521483 0.122718796 -0.01986707 -0.0013570896 -0.1715714
0.032617044 -0.08141565 -0.13022873 -0.017384756 0.015861731 -0.011052966 0.0113719255 -0.07055914
-0.009664117 0.15340477 -0.17556235 0.1477533 0.1435428 -0.12447606 0.035824746 0.030364633
-0.043276347 0.114765495 -0.011449689 -0.048410784 -0.043290228 0.05222005 -0.037548993 0.11611878
-0.1531401 -0.006853466 -0.13862112 0.08577504 0.07005475 0.049300395 0.12397652 0.028653603
0.011737049 0.053422026 0.06880965 0.112987116 -0.10393018 -0.07401195 -0.04217125 -0.09856963
-0.1617017 0.008864718 -0.11521234 0.09505546 0.071383305 -0.015000629 -0.16545595 0.05132492
0.0009777995 0.12679243 -0.1462106 -0.082883306 0.047519084 -0.0055386876 -0.1428701 -0.111048184
0.07006664 -0.09061821 0.021535411 0.06714193 -0.055371955 0.10229907 0.080309466 0.1324067
-0.120205246 0.017589474 -0.01514068 -0.040469196 0.12206119 0.06841064 0.130229 0.0012338393
-0.06293306 -0.1448462 0.03844554 -0.028082287 -0.15487412 -0.03658913 -0.0005357054 0.061467674
-0.0940712 -0.057142414 0.044078022 -0.17190659 -0.08791748 0.07115141 -0.15122631 -0.04186968
-0.0047088456 -0.0015205092 -0.06327415 -0.17141458 -0.06522186 -0.071742184 -0.03890057 0.11430965
-0.0064559127 0.07327972 -0.019139925 -0.0005762964 -0.016782304 -0.13643698 0.040227897 -0.079097144
-0.071531884 0.21078074 -0.04417619 -0.049326718 0.09962514 -0.0687728 -0.057846334 0.12858585
0.0792755 0.09830357 -0.14135168 0.079186976 -0.043575913 -0.1488114 -0.10942928 -0.052683536
0.16949663 0.055729017 -0.014679729 -0.074283265 0.051075917 0.08664279 -0.023570942 -0.020995384
-0.08155112 0.21730438 -0.19968034 -0.016926857 0.06436191 0.08000613 0.07698591 0.13216436
-0.10759369 -0.066706166 -0.088495724 0.087560974 -0.16673134 -0.09513575 0.050588783 0.17995705
-0.1575872 -0.003170145 -0.04455794 0.057952765 -0.11490222 0.043349013 -0.09886883 -0.012729678
-0.02337429 0.04803947 -0.055375986 0.062861845 -0.042377792 -0.046747066 0.08997993 0.033816
0.019162077 0.15187065 -0.011777601 -0.035134062 -0.11782853 0.047547504 0.003374801 0.01187732

lstm.bias_ih_l0 f4 [256]
00000000: 3fd6 97bc df2e 933d 3988 0bbd cd45 5ebe
00000010: acf7 9bbd f68f c5bd 58bf 27be 2bc2 783c
00000020: ee14 1abe abf8 bc3d eda0 bc3d 4067 53be
00000030: 7f94 a8bd 6f92 c83c 7499 86bd 5750 26bd
00000040: 2fc5 85bb 0d21 5cbe 6434 993d 3d23 30bc
00000050: 423a 863d 91ca f1bd f650 b5bd db4a 1abd
00000060: bb33 08be 706f bbbd 9232 30be f6ec e7bc
00000070: 54f3 42be 3431 083d 3709 53be dfa9 23be
00000080: c550 0cbc e5e2 1bbc 0b80 06be 88b6 2d3d
00000090: d305 88bd dc04 edbd 0086 90bd 3435 0ebd
000000a0: b3ed 2cbe 41cc 263c b3a9 73be 9b8c 81bd
000000b0: 546a 4fbd d1fd 90bd c2d8 913d d251 34be
000000c0: 641e 33bd be9e e0bd e02f 5fbe c69c a53b
000000d0: c553 e2bd 6474 0ebe 8cf5 ff3d 18e3 c83c
000000e0: 7820 c7bd 71a4 e3bd 1b6c 113d 4d5b a5bd
000000f0: e897 69be cf41 563c 7af0 bfbd b2c0 e0bd
00000100: c035 1c3c f1de c7bd 179e ccbd 6f89 4cbe
00000110: c213 4bbe 0c2f 483d 5f4b 66bd ca82 38be
00000120: 9f50 ccbd 32af c9bc d12a 09be 58fb a5bd
00000130: c119 eebd b09c 663c e390 f63d 7766 e5bd
00000140: aa1f 073d 272f fcbc b11e a1bc ae09 493d
00000150: 0fe4 c4bd afa4 d9bc 17d4 5bbe 8190 21be
00000160: 7a57 e2bc c11a 03b9 e36b 1fbe 7a2c 59bd
00000170: 1d5f a3bd 26d1 ac3b 2ebc 973c 90ab fb3c
00000180: e287 76bd 3950 32bb c38b ccbd 5dce a03c
00000190: a88a dbbd c327 d1bd dda3 d4bd 4d84 13be
000001a0: 932a f0bd 46de 0ebe 2e3c 3ebe 919e c6bd
000001b0: 82eb 423c 8179 04be 8d79 393c d936 823c
000001c0: 81c2 0dbe 0f22 06bc 669a 4abe 7472 a8bd
000001d0: eecb 8bbd 93ee 9fbd 92b4 c2bd c158 bebb
000001e0: faa4 b93c c0e6 e2bd e841 883c 094a 0fbd
000001f0: 0eec 37bd b46b efbb ea1b 36bd acb3 6939
00000200: ecc5 0a3d 792b 89bd 608a a53c decb 443c
00000210: b2d5 afbd 938d cd3c bd90 aa3c 6792 cfbb
00000220: 96c7 f13c e427 acbd 1236 3b3d b29c 23bd
00000230: 8935 7ebb dfd3 6fbb ddf2 3c3d 08c3 f93c
00000240: f392 11bd 2a00 a4bd 53a3 c73c 37cc c13d
00000250: e786 7ebb 4cb7 1fbc c060 a73d 7480 083d
00000260: ed39 99bd 7bf5 4fbd e495 92bc 6e82 343d
00000270: c06d 6dbc fcc2 cc3d 807b bf3d 3f82 513d
00000280: ba70 fcba f7cd c8bd 2d38 47bd 16f7 e8bc
00000290: 5628 03bd 4968 393c 6451 793d ea9a 6cbc
000002a0: 69ff 8d3d 991d 27bd 0757 b23d eff4 c63d
000002b0: 4899 58bc b013 e8bd e9db d1bd 42c5 7b3c
000002c0: 8b45 31bc 90f2 0bbe 3ba3 5bbc d95e 0b3d
000002d0: 6ad6 4d3d 3e44 0e3d 2064 8abd fa86 18be
000002e0: 8b51 ebbc 6680 9ebd 910e 02bd 6059 e03c
000002f0: 9ff1 343d 9754 99bd 413b bfbc 319b 753c
00000300: 92cb 903b 0008 17bc cd37 0d3c c93e 8cbd
00000310: 1944 38be 30e0 423d 87b0 103d 40d9 86bd
00000320: 6c6c f23a b37c 35bb 08b3 b2bd 6009 34bd
00000330: 6831 27bd 4413 473d 8642 7fbc 7e9f 66bd
00000340: 550a 9e3c 9c13 03be 6261 1abe 3852 1abd
00000350: 767c 0abe 1d6f 15bd 1e03 81bd 1a80 febd
00000360: 5401 84bd 354e a8bd de7e 4b3d b461 e8bc
00000370: cc6c 0ebd 8a5a d8bd 6e7c 02be 8dab e7bd
00000380: 3327 8d3c 3525 e0bd 6d86 44bd 13aa b23d
00000390: d59d 1fbd f8f0 cbbd 7bff dcbd 5748 4bbd
000003a0: c6a7 0bbc 855b 123d 02ac 5fbd 2cc4 12be
000003b0: d8c2 9d3d 2b23 84be 65b2 fabc 9b90 d3bc
000003c0: 8052 883d deb9 18be fde4 17be cf03 02be
000003d0: 6276 813d 86bc 4cbe 8060 4ebd 0b02 563b
000003e0: 7ca9 43be 3886 5abe 1bbf c6bd e254 38bc
000003f0: f003 46be a2b5 75bd 9477 9dbd 8f3a ef3b
-0.018534778 0.07186674 -0.03406546 -0.21706314 -0.07615599 -0.09646599 -0.16381586 0.015183012
-0.15047047 0.09227117 0.09210382 -0.20644855 -0.082314484 0.024483887 -0.065722376 -0.04060396
-0.004082344 -0.21496983 0.07480696 -0.010750589 0.065540805 -0.118062146 -0.08853333 -0.037669044
-0.13300984 -0.091521144 -0.17206791 -0.028311234 -0.19038135 0.03325005 -0.20608984 -0.1598277
-0.008564179 -0.009514545 -0.13134782 0.042410403 -0.06641736 -0.115731925 -0.070568085 -0.034718707
-0.1688755 0.010180534 -0.23795204 -0.063256465 -0.05063851 -0.07079662 0.071214214 -0.17609337
-0.043730155 -0.10967778 -0.21795607 0.0050540892 -0.11051134 -0.13911587 0.12498006 0.02452235
-0.0972299 -0.11115349 0.035503488 -0.08074055 -0.22811854 0.013077213 -0.09372039 -0.10974254
0.009534299 -0.097593196 -0.09991091 -0.19974302 -0.19831756 0.048872992 -0.056224223 -0.18018642
-0.09976315 -0.024619672 -0.1339524 -0.08104581 -0.11626006 0.014075443 0.12039354 -0.11201184
0.03298918 -0.030784203 -0.019667955 0.049081497 -0.09613811 -0.026567785 -0.21467625 -0.1577778
-0.027629603 -0.000125031 -0.155685 -0.05302093 -0.07977126 0.005273956 0.018522348 0.030721456
-0.06018818 -0.002720846 -0.09987595 0.019629652 -0.10719806 -0.10212662 -0.10382817 -0.14405937
-0.117268704 -0.13951978 -0.18577644 -0.09698213 0.01189697 -0.12936975 0.011320484 0.015895294
-0.13843729 -0.008186831 -0.19785461 -0.08224955 -0.06826006 -0.07809176 -0.09507097 -0.00580892
0.022661675 -0.11079168 0.016632989 -0.034982715 -0.044902854 -0.0073065404 -0.044460215 0.00022287545
0.03388016 -0.06697745 0.020207584 0.012011496 -0.08585681 0.025091922 0.02082097 -0.006334591
0.029514115 -0.08406046 0.045705862 -0.03994436 -0.0038789234 -0.003659479 0.04613005 0.030488506
-0.035540532 -0.08007844 0.024369871 0.09462779 -0.0038837732 -0.009748291 0.081727505 0.033325627
-0.074817516 -0.050771218 -0.017893739 0.0440697 -0.0144914985 0.09998128 0.09349728 0.051149603
-0.0019259669 -0.0980491 -0.048637558 -0.028438132 -0.03202089 0.011316367 0.060868636 -0.014441231
0.06933481 -0.04079971 0.087080054 0.09714686 -0.013220139 -0.1133188 -0.10247023 0.015366854
-0.010819803 -0.13666749 -0.013405616 0.034026 0.05025331 0.03473305 -0.067573786 -0.1489524
-0.028725406 -0.07739334 -0.031752173 0.027386367 0.04417574 -0.07486837 -0.023343684 0.014990614
0.0044187987 -0.009218216 0.008619261 -0.06847913 -0.17994727 0.047577083 0.0353246 -0.06584406
0.0018495447 -0.0027692735 -0.08725554 -0.043954253 -0.0408186 0.048602358 -0.015579825 -0.056304447
0.019292036 -0.12800449 -0.15076211 -0.037676066 -0.1352404 -0.03648292 -0.06299423 -0.12426777
-0.06445566 -0.08218042 0.049681537 -0.028366901 -0.034771726 -0.10564144 -0.12742779 -0.113120176
0.017230606 -0.10944597 -0.04797976 0.08723845 -0.03896888 -0.099580705 -0.107909165 -0.049629536
-0.008523887 0.03573181 -0.0546074 -0.14332646 0.07703179 -0.2580808 -0.030602643 -0.02582579
0.066563606 -0.14914653 -0.14833446 -0.12696765 0.06321408 -0.19993791 -0.050385 0.0032655026
-0.19107622 -0.21340263 -0.09704419 -0.011250706 -0.1933744 -0.05998767 -0.07688823 0.007300682

lstm.bias_hh_l0 f4 [256]
00000000: 3140 79bd af7b 603d f837 57be 8c50 74bd
00000010: da7a fdbc 509b c7bd 0ea8 fe3c a4f0 b8bd
00000020: 39c7 99bd bbbd 663c f392 c8bc aade 1dbc
00000030: 1df0 d8bd ceb4 913d 42c3 133d 2dbb fd3c
00000040: 7f24 f6bc 8555 603c 0043 c4bc cd72 9b3d
00000050: a6e5 e0bb a965 d3bd 82a2 b2bc e977 8ebc
00000060: 98ca 4c3d 0eae a63c 3c39 24be 8436 b3bd
00000070: ea13 55be a945 24be 10b1 46be cfa0 b3bd
00000080: 8866 b53d e364 e73b afcd bcbd d51a b13d
00000090: 7e2d 43bd c1cb c4bd bc1f 8ebd 32d3 17be
000000a0: f0ab fcbd 9c37 4bbc 829d bbbc 74cc 7f3d
000000b0: b264 36bd 3c04 52be 69e4 ac3d 5487 18bd
000000c0: 49a8 e33c deee ac3c 48c8 74bc 18b7 65bd
000000d0: dddb 8e3d 7aec 51be f312 6e3c 33f6 79bd
000000e0: 0db3 d1bc 2f0c 0abe 3ad1 c1bd 378a 2dbe
000000f0: 8151 4ebe cc21 933c 5494 f8bd 54cb 823b
00000100: cc21 b2bd 01eb e9bd d06b a7bd 9788 8dbd
00000110: 3c0a a6bd d628 d73a 9d3a 01be 8606 2fbe
00000120: 8576 11be 4011 c3bd 2f3e bfbc 592b 7cbd
00000130: 4f6f 1bbb c93b db3b b79e 8abd a1c9 23bb
00000140: 5a72 82bc f608 a4bd b790 d8bd e712 12be
00000150: d859 f2bc c71a 1dbe 37d0 0dbe 21d2 2abe
00000160: 4e01 103d 3317 00be 2be3 8abd 5bfb e2bd
00000170: 3148 203c e484 edbb 02c5 4fbe 91e3 a2bb
00000180: 2eec d0bc 7bda 9abc f0b2 b5bd b4b2 2bbd
00000190: 29cd 513d 2027 573d 9ea9 13bc adb7 1abe
000001a0: 006e 01bd 1d7d f2bd 1131 bbbd c55b 2cbd
000001b0: cc9f cebd a350 48bd ce61 f6bd 8e4a 3fbe
000001c0: 60bf ca3d d73f 1abd 7ada 88bc 6467 b6bd
000001d0: 28ea cd3d a35e 193c 58f8 a6bd 47ba aabc
000001e0: 193f ee3a af62 a4bd 30bb ce3d 5445 a2bd
000001f0: b98a d5bd d4dc 8ebd a6f8 17bd b31a a73c
00000200: 7bd2 c33d df9b e2bd c984 85bd 7880 a43d
00000210: 19e5 503d 25a9 33bb 484c 89bc a01c 2abd
00000220: 981f 61bc f66a 813d 3f74 8a3d 6f47 3a3d
00000230: 72af d83c d3d0 a73d 563d 0f3e 9e05 ff3c
00000240: 2494 a8bd c50c b33c 5040 17bc 08ac d0bc
00000250: 3ff6 54bd f825 17bd 7075 08bd fc95 00bd
00000260: 6b58 afbb 8821 26bc 7a36 f438 0ecb c0bd
00000270: f9d3 37bd eff7 d6bd 7cd1 47bd d19f 48bc
00000280: cbc3 b03c 485d 883c 44de 9c3d 63ee 233c
00000290: 3fab f23c 2485 ad3d 38eb 9bbd cf76 983c
000002a0: 5277 f4bb ceee 06bd 38cb 15bd e957 7cbd
000002b0: e29a 053c 0cdb 883d 81cf 173c 6e68 f1bd
000002c0: 07bc c53d 695d 993d 824f 053d 4135 75bb
000002d0: 726a b73d c86c 36bd aa94 03be c39d 733d
000002e0: ab0f 6a3d a5a1 c23c d2a6 ec3d 6586 e13b
000002f0: 41df a8bd 0688 203d 8c98 b63d d843 6e3d
00000300: 818c 07be b8e5 13bd 8a1a 28be cd95 08bd
00000310: 9029 11be 4d6f f1bd 6a12 82bc de0b bebd
00000320: 389a dc3c 7fe1 82bb c70b aebd ae9c 70be
00000330: f66d a5ba cae7 65bd 776a bbbd cf9c 5ebd
00000340: 8796 e4bd 06eb 56be 8247 503d c418 0cbd
00000350: e22e 763d a022 dcbd ac03 1abe 3312 ff3c
00000360: 9f32 93bc 62f5 edbd f034 5abc e16b 08be
00000370: e8c5 b7bc 4f1d 7ebd 6da3 0e3c 053f 2ebe
00000380: 5fc1 123d 7601 f8bd f302 173d ea90 3d3c
00000390: 5a93 2ebe 8bc0 18be e9a7 2cbd 7f6e 0ebe
000003a0: 2a1c 0ebe f968 9c3c e4f8 67bd 1f98 78bd
000003b0: c0d3 05be b048 86be 1a66 b5bd 8614 1a3d
000003c0: d26a b0bc e1ea 413c f53c 18be aedc c63c
000003d0: 931b 1dbc 7131 f5bd 6a6d 6b3d 7b38 8ebd
000003e0: eb6b 25be aaad 60bd e27e 443d 8ff9 09bd
000003f0: 89fb cfbd 44d6 36be 1b2c c5bc 9c73 79bc
-0.060852233 0.054805454 -0.21017444 -0.059647128 -0.03094237 -0.097464204 0.031085994 -0.090302736
-0.07508702 0.014083321 -0.024484133 -0.009635607 -0.10592673 0.07114564 0.036074884 0.030973041
-0.0300467 0.013692264 -0.02395773 0.07590256 -0.0068633137 -0.103221245 -0.021806005 -0.017391162
0.049997896 0.020346668 -0.16037458 -0.087506324 -0.20808378 -0.16042198 -0.19403481 -0.08770906
0.08857447 0.007061587 -0.092189185 0.08647696 -0.047650807 -0.096091755 -0.069396466 -0.14826658
-0.12337482 -0.012403395 -0.022902254 0.06245084 -0.044529624 -0.20509428 0.08442003 -0.037238434
0.027790206 0.021109995 -0.014940329 -0.056082815 0.06975529 -0.20500365 0.014530885 -0.06102581
-0.025598073 -0.1348121 -0.09463735 -0.16947256 -0.20148279 0.017960452 -0.12137666 0.0039915238
-0.086978525 -0.114217766 -0.081748605 -0.06910818 -0.08107421 0.0016415368 -0.12620015 -0.17092332
-0.14205368 -0.095247746 -0.023345081 -0.061564777 -0.0023717468 0.0066904766 -0.06768554 -0.0024992006
-0.015923668 -0.08009522 -0.10574477 -0.14265023 -0.029583856 -0.15342246 -0.13848959 -0.1668172
0.035157494 -0.1250885 -0.0678161 -0.110830985 0.009782837 -0.007248508 -0.20289996 -0.0049709757
-0.025503244 -0.018903008 -0.0887202 -0.04191847 0.051221047 0.052527547 -0.009012608 -0.15109129
-0.031599045 -0.1184027 -0.09140218 -0.042079706 -0.100890726 -0.048905026 -0.120303735 -0.18680784
0.09899783 -0.03765854 -0.01670574 -0.08906439 0.100544274 0.009360942 -0.081528366 -0.020840777
0.0018176764 -0.08026635 0.10094297 -0.079233795 -0.1042685 -0.06975713 -0.037102364 0.020398473
0.0956163 -0.11064886 -0.065194674 0.08032316 0.050999735 -0.002741405 -0.016760007 -0.041531205
-0.013740443 0.06319229 0.067604534 0.04547828 0.026450846 0.08194127 0.13988242 0.031130608
-0.082313806 0.021856675 -0.009231642 -0.025472656 -0.05199265 -0.036901444 -0.033315122 -0.031393036
-0.0053511164 -0.01013983 0.00011644974 -0.094137296 -0.044879887 -0.10496508 -0.048783764 -0.012245134
0.021577736 0.016646042 0.07659581 0.010005566 0.029622672 0.0847266 -0.07613224 0.01861134
-0.007460513 -0.032942586 -0.036570758 -0.061607275 0.008154603 0.06682405 0.009265781 -0.117874965
0.09655004 0.0748852 0.032546528 -0.0037415775 0.0895585 -0.044537336 -0.1284968 0.059476625
0.05714385 0.023758719 0.11555256 0.006882476 -0.08245707 0.039192222 0.08915815 0.05817017
-0.13237192 -0.03610775 -0.16416374 -0.033345986 -0.14176011 -0.11788807 -0.015877921 -0.09279607
0.026929006 -0.0039941664 -0.0849834 -0.23497269 -0.0012621272 -0.056129254 -0.09151166 -0.054348763
-0.11161523 -0.20988092 0.050849445 -0.034203306 0.060103305 -0.10748792 -0.15040463 0.031136608
-0.017968474 -0.11619069 -0.013318285 -0.13322403 -0.022433236 -0.06203967 0.008705956 -0.17016228
0.035828944 -0.12109654 0.036868047 0.011570195 -0.17048398 -0.149172 -0.04215232 -0.13909338
-0.13877931 0.019093024 -0.056633845 -0.06069195 -0.13069057 -0.2622733 -0.08857365 0.03761723
-0.02153531 0.011835785 -0.14867003 0.02427515 -0.009589094 -0.11972321 0.057477392 -0.069443665
-0.16154449 -0.05485312 0.047972567 -0.033685263 -0.101553984 -0.17855173 -0.024068883 -0.015225317

fc.weight f4 [1, 64]
00000000: cf10 cabd a149 023e 5542 fd3b 53f1 a5bc
00000010: d8b3 e83c c846 413d f574 a4bc 345c 35bd
00000020: 12fc 39bc 5ec7 7b3c c4b8 3ebd f746 2fbc
00000030: f935 0dbd 21f1 b5bd f4e2 c6bd 4802 f33c
00000040: 3182 a63d 764b b13c 892c 46bc bf6d ddbc
00000050: 7027 d83c f549 a03c 20fa 7fbc f222 2fbc
00000060: c1d8 9b3c 3170 b6bc f69c babc 4eb9 6e3c
00000070: 944d a13c f077 913c 7a97 35bd 4568 03bc
00000080: 35f0 9fbc 4b0d 043d 632b d43b 35d0 1e3d
00000090: 16a1 ed3c 2d08 44bd b760 c5bc 4d20 09bd
000000a0: ee45 98bc 894a 1d3c fd8b e83c 6471 a3bd
000000b0: 8ed8 b239 1ad1 aebb a875 693d 8e30 863c
000000c0: df2a 1cbd 3cba 20bc ac1b 89bc 1ec4 643c
000000d0: e01a 35bd 2ca4 8cbc dedf 013e ee8b a93d
000000e0: 33b2 bbbc 8936 f83c 6e93 98bd b2fd 2a3c
000000f0: c374 403c ccbb 91bc 18ba 56bd 666a d3bd
-0.09866487 0.127234 0.0077288547 -0.020256674 0.028406069 0.047186643 -0.0200753 -0.044277385
-0.011351602 0.015367357 -0.046562925 -0.010698072 -0.0344753 -0.08883882 -0.097112566 0.029664174
0.08130301 0.021642428 -0.012095579 -0.02702987 0.026385993 0.019566515 -0.015623599 -0.010689484
0.019024255 -0.022270294 -0.022779923 0.014570547 0.019690312 0.017757386 -0.044333912 -0.008020465
-0.01952372 0.03223924 0.0064748987 0.03877278 0.029007476 -0.04785936 -0.024093969 -0.03347807
-0.018588033 0.00960029 0.028387064 -0.07980612 0.00034112151 -0.0053349854 0.05699697 0.016380575
-0.038126823 -0.009810027 -0.016736828 0.013962774 -0.044215083 -0.017168127 0.12683055 0.082786426
-0.02291212 0.030299442 -0.07449995 0.010436462 0.011746588 -0.017789744 -0.052423567 -0.10323028
